…
model.classifier = nn.Linear(in_features, CFG.embedding_size) 

out = model(torch.randn(1, 3, CFG.img_size, CFG.img_size)) 
print(f"Embedding shape : {out.shape}") 
#> Embedding shape : torch.Size([1, 512])

model.to(CFG.device) 
#> EfficientNet(
#>   (conv_stem): Conv2dSame(3, 48, kernel_size=(3, 3), stride=(2, 2), bias=False)
#>   (bn1): BatchNormAct2d(
#>     48, eps=0.001, momentum=0.1, affine=True, track_running_stats=True
#>     (drop): Identity()
#>     (act): SiLU(inplace=True)
#>   )
#>   (blocks): Sequential(
#>     (0): Sequential(
#>       (0): DepthwiseSeparableConv(
#>         (conv_dw): Conv2d(48, 48, kernel_size=(3, 3), stride=(1, 1), padding=(1, 1), groups=48, bias=False)
#>         (bn1): BatchNormAct2d(
#>           48, eps=0.001, momentum=0.1, affine=True, track_running_stats=True
#>           (drop): Identity()
#>           (act): SiLU(inplace=True)
#>         )
#>         (aa): Identity()
#>         (se): SqueezeExcite(
#>           (conv_reduce): Conv2d(48, 12, kernel_size=(1, 1), stride=(1, 1))
#>           (act1): SiLU(inplace=True)
#>           (conv_expand): Conv2d(12, 48, kernel_size=(1, 1), stride=(1, 1))
#>           (gate): Sigmoid()
#>         )
#>         (conv_pw): Conv2d(48, 24, kernel_size=(1, 1), stride=(1, 1), bias=False)
#>         (bn2): BatchNormAct2d(
#>           24, eps=0.001, momentum=0.1, affine=True, track_running_stats=True
#>           (drop): Identity()
#>           (act): Identity()
#>         )
#>         (drop_path): Identity()
#>       )
#>       (1): DepthwiseSeparableConv(
#>         (conv_dw): Conv2d(24, 24, kernel_size=(3, 3), stride=(1, 1), padding=(1, 1), groups=24, bias=False)
#>         (bn1): BatchNormAct2d(
#>           24, eps=0.001, momentum=0.1, affine=True, track_running_stats=True
#>           (drop): Identity()
#>           (act): SiLU(inplace=True)
#>         )
#>         (aa): Identity()
#>         (se): SqueezeExcite(
#>           (conv_reduce): Conv2d(24, 6, kernel_size=(1, 1), stride=(1, 1))
#>           (act1): SiLU(inplace=True)
#>           (conv_expand): Conv2d(6, 24, kernel_size=(1, 1), stride=(1, 1))
#>           (gate): Sigmoid()
#>         )
#>         (conv_pw): Conv2d(24, 24, kernel_size=(1, 1), stride=(1, 1), bias=False)
#>         (bn2): BatchNormAct2d(
#>           24, eps=0.001, momentum=0.1, affine=True, track_running_stats=True
#>           (drop): Identity()
#>           (act): Identity()
#>         )
#>         (drop_path): Identity()
#>       )
#>     )
#>     (1): Sequential(
#>       (0): InvertedResidual(
#>         (conv_pw): Conv2d(24, 144, kernel_size=(1, 1), stride=(1, 1), bias=False)
#>         (bn1): BatchNormAct2d(
#>           144, eps=0.001, momentum=0.1, affine=True, track_running_stats=True
#>           (drop): Identity()
#>           (act): SiLU(inplace=True)
#>         )
#>         (conv_dw): Conv2dSame(144, 144, kernel_size=(3, 3), stride=(2, 2), groups=144, bias=False)
#>         (bn2): BatchNormAct2d(
#>           144, eps=0.001, momentum=0.1, affine=True, track_running_stats=True
#>           (drop): Identity()
#>           (act): SiLU(inplace=True)
#>         )
#>         (aa): Identity()
#>         (se): SqueezeExcite(
#>           (conv_reduce): Conv2d(144, 6, kernel_size=(1, 1), stride=(1, 1))
#>           (act1): SiLU(inplace=True)
#>           (conv_expand): Conv2d(6, 144, kernel_size=(1, 1), stride=(1, 1))
#>           (gate): Sigmoid()
#>         )
#>         (conv_pwl): Conv2d(144, 32, kernel_size=(1, 1), stride=(1, 1), bias=False)
#>         (bn3): BatchNormAct2d(
#>           32, eps=0.001, momentum=0.1, affine=True, track_running_stats=True
#>           (drop): Identity()
#>           (act): Identity()
#>         )
#>         (drop_path): Identity()
#>       )
#>       (1): InvertedResidual(
#>         (conv_pw): Conv2d(32, 192, kernel_size=(1, 1), stride=(1, 1), bias=False)
#>         (bn1): BatchNormAct2d(
#>           192, eps=0.001, momentum=0.1, affine=True, track_running_stats=True
#>           (drop): Identity()
#>           (act): SiLU(inplace=True)
#>         )
#>         (conv_dw): Conv2d(192, 192, kernel_size=(3, 3), stride=(1, 1), padding=(1, 1), groups=192, bias=False)
#>         (bn2): BatchNormAct2d(
#>           192, eps=0.001, momentum=0.1, affine=True, track_running_stats=True
#>           (drop): Identity()
#>           (act): SiLU(inplace=True)
#>         )
#>         (aa): Identity()
#>         (se): SqueezeExcite(
#>           (conv_reduce): Conv2d(192, 8, kernel_size=(1, 1), stride=(1, 1))
#>           (act1): SiLU(inplace=True)
#>           (conv_expand): Conv2d(8, 192, kernel_size=(1, 1), stride=(1, 1))
#>           (gate): Sigmoid()
#>         )
#>         (conv_pwl): Conv2d(192, 32, kernel_size=(1, 1), stride=(1, 1), bias=False)
#>         (bn3): BatchNormAct2d(
#>           32, eps=0.001, momentum=0.1, affine=True, track_running_stats=True
#>           (drop): Identity()
#>           (act): Identity()
#>         )
#>         (drop_path): Identity()
#>       )
#>       (2): InvertedResidual(
#>         (conv_pw): Conv2d(32, 192, kernel_size=(1, 1), stride=(1, 1), bias=False)
#>         (bn1): BatchNormAct2d(
#>           192, eps=0.001, momentum=0.1, affine=True, track_running_stats=True
#>           (drop): Identity()
#>           (act): SiLU(inplace=True)
#>         )
#>         (conv_dw): Conv2d(192, 192, kernel_size=(3, 3), stride=(1, 1), padding=(1, 1), groups=192, bias=False)
#>         (bn2): BatchNormAct2d(
#>           192, eps=0.001, momentum=0.1, affine=True, track_running_stats=True
#>           (drop): Identity()
#>           (act): SiLU(inplace=True)
#>         )
#>         (aa): Identity()
#>         (se): SqueezeExcite(
#>           (conv_reduce): Conv2d(192, 8, kernel_size=(1, 1), stride=(1, 1))
#>           (act1): SiLU(inplace=True)
#>           (conv_expand): Conv2d(8, 192, kernel_size=(1, 1), stride=(1, 1))
#>           (gate): Sigmoid()
#>         )
#>         (conv_pwl): Conv2d(192, 32, kernel_size=(1, 1), stride=(1, 1), bias=False)
#>         (bn3): BatchNormAct2d(
#>           32, eps=0.001, momentum=0.1, affine=True, track_running_stats=True
#>           (drop): Identity()
#>           (act): Identity()
#>         )
#>         (drop_path): Identity()
#>       )
#>       (3): InvertedResidual(
#>         (conv_pw): Conv2d(32, 192, kernel_size=(1, 1), stride=(1, 1), bias=False)
#>         (bn1): BatchNormAct2d(
#>           192, eps=0.001, momentum=0.1, affine=True, track_running_stats=True
#>           (drop): Identity()
#>           (act): SiLU(inplace=True)
#>         )
#>         (conv_dw): Conv2d(192, 192, kernel_size=(3, 3), stride=(1, 1), padding=(1, 1), groups=192, bias=False)
#>         (bn2): BatchNormAct2d(
#>           192, eps=0.001, momentum=0.1, affine=True, track_running_stats=True
#>           (drop): Identity()
#>           (act): SiLU(inplace=True)
#>         )
#>         (aa): Identity()
#>         (se): SqueezeExcite(
#>           (conv_reduce): Conv2d(192, 8, kernel_size=(1, 1), stride=(1, 1))
#>           (act1): SiLU(inplace=True)
#>           (conv_expand): Conv2d(8, 192, kernel_size=(1, 1), stride=(1, 1))
#>           (gate): Sigmoid()
#>         )
#>         (conv_pwl): Conv2d(192, 32, kernel_size=(1, 1), stride=(1, 1), bias=False)
#>         (bn3): BatchNormAct2d(
#>           32, eps=0.001, momentum=0.1, affine=True, track_running_stats=True
#>           (drop): Identity()
#>           (act): Identity()
#>         )
#>         (drop_path): Identity()
#>       )
#>     )
#>     (2): Sequential(
#>       (0): InvertedResidual(
#>         (conv_pw): Conv2d(32, 192, kernel_size=(1, 1), stride=(1, 1), bias=False)
#>         (bn1): BatchNormAct2d(
#>           192, eps=0.001, momentum=0.1, affine=True, track_running_stats=True
#>           (drop): Identity()
#>           (act): SiLU(inplace=True)
#>         )
#>         (conv_dw): Conv2dSame(192, 192, kernel_size=(5, 5), stride=(2, 2), groups=192, bias=False)
#>         (bn2): BatchNormAct2d(
#>           192, eps=0.001, momentum=0.1, affine=True, track_running_stats=True
#>           (drop): Identity()
#>           (act): SiLU(inplace=True)
#>         )
#>         (aa): Identity()
#>         (se): SqueezeExcite(
#>           (conv_reduce): Conv2d(192, 8, kernel_size=(1, 1), stride=(1, 1))
#>           (act1): SiLU(inplace=True)
#>           (conv_expand): Conv2d(8, 192, kernel_size=(1, 1), stride=(1, 1))
#>           (gate): Sigmoid()
#>         )
#>         (conv_pwl): Conv2d(192, 56, kernel_size=(1, 1), stride=(1, 1), bias=False)
#>         (bn3): BatchNormAct2d(
#>           56, eps=0.001, momentum=0.1, affine=True, track_running_stats=True
#>           (drop): Identity()
#>           (act): Identity()
#>         )
#>         (drop_path): Identity()
#>       )
#>       (1): InvertedResidual(
#>         (conv_pw): Conv2d(56, 336, kernel_size=(1, 1), stride=(1, 1), bias=False)
#>         (bn1): BatchNormAct2d(
#>           336, eps=0.001, momentum=0.1, affine=True, track_running_stats=True
#>           (drop): Identity()
#>           (act): SiLU(inplace=True)
#>         )
#>         (conv_dw): Conv2d(336, 336, kernel_size=(5, 5), stride=(1, 1), padding=(2, 2), groups=336, bias=False)
#>         (bn2): BatchNormAct2d(
#>           336, eps=0.001, momentum=0.1, affine=True, track_running_stats=True
#>           (drop): Identity()
#>           (act): SiLU(inplace=True)
#>         )
#>         (aa): Identity()
#>         (se): SqueezeExcite(
#>           (conv_reduce): Conv2d(336, 14, kernel_size=(1, 1), stride=(1, 1))
#>           (act1): SiLU(inplace=True)
#>           (conv_expand): Conv2d(14, 336, kernel_size=(1, 1), stride=(1, 1))
#>           (gate): Sigmoid()
#>         )
#>         (conv_pwl): Conv2d(336, 56, kernel_size=(1, 1), stride=(1, 1), bias=False)
#>         (bn3): BatchNormAct2d(
#>           56, eps=0.001, momentum=0.1, affine=True, track_running_stats=True
#>           (drop): Identity()
#>           (act): Identity()
#>         )
#>         (drop_path): Identity()
#>       )
#>       (2): InvertedResidual(
#>         (conv_pw): Conv2d(56, 336, kernel_size=(1, 1), stride=(1, 1), bias=False)
#>         (bn1): BatchNormAct2d(
#>           336, eps=0.001, momentum=0.1, affine=True, track_running_stats=True
#>           (drop): Identity()
#>           (act): SiLU(inplace=True)
#>         )
#>         (conv_dw): Conv2d(336, 336, kernel_size=(5, 5), stride=(1, 1), padding=(2, 2), groups=336, bias=False)
#>         (bn2): BatchNormAct2d(
#>           336, eps=0.001, momentum=0.1, affine=True, track_running_stats=True
#>           (drop): Identity()
#>           (act): SiLU(inplace=True)
#>         )
#>         (aa): Identity()
#>         (se): SqueezeExcite(
#>           (conv_reduce): Conv2d(336, 14, kernel_size=(1, 1), stride=(1, 1))
#>           (act1): SiLU(inplace=True)
#>           (conv_expand): Conv2d(14, 336, kernel_size=(1, 1), stride=(1, 1))
#>           (gate): Sigmoid()
#>         )
#>         (conv_pwl): Conv2d(336, 56, kernel_size=(1, 1), stride=(1, 1), bias=False)
#>         (bn3): BatchNormAct2d(
#>           56, eps=0.001, momentum=0.1, affine=True, track_running_stats=True
#>           (drop): Identity()
#>           (act): Identity()
#>         )
#>         (drop_path): Identity()
#>       )
#>       (3): InvertedResidual(
#>         (conv_pw): Conv2d(56, 336, kernel_size=(1, 1), stride=(1, 1), bias=False)
#>         (bn1): BatchNormAct2d(
#>           336, eps=0.001, momentum=0.1, affine=True, track_running_stats=True
#>           (drop): Identity()
#>           (act): SiLU(inplace=True)
#>         )
#>         (conv_dw): Conv2d(336, 336, kernel_size=(5, 5), stride=(1, 1), padding=(2, 2), groups=336, bias=False)
#>         (bn2): BatchNormAct2d(
#>           336, eps=0.001, momentum=0.1, affine=True, track_running_stats=True
#>           (drop): Identity()
#>           (act): SiLU(inplace=True)
#>         )
#>         (aa): Identity()
#>         (se): SqueezeExcite(
#>           (conv_reduce): Conv2d(336, 14, kernel_size=(1, 1), stride=(1, 1))
#>           (act1): SiLU(inplace=True)
#>           (conv_expand): Conv2d(14, 336, kernel_size=(1, 1), stride=(1, 1))
#>           (gate): Sigmoid()
#>         )
#>         (conv_pwl): Conv2d(336, 56, kernel_size=(1, 1), stride=(1, 1), bias=False)
#>         (bn3): BatchNormAct2d(
#>           56, eps=0.001, momentum=0.1, affine=True, track_running_stats=True
#>           (drop): Identity()
#>           (act): Identity()
#>         )
#>         (drop_path): Identity()
#>       )
#>     )
#>     (3): Sequential(
#>       (0): InvertedResidual(
#>         (conv_pw): Conv2d(56, 336, kernel_size=(1, 1), stride=(1, 1), bias=False)
#>         (bn1): BatchNormAct2d(
#>           336, eps=0.001, momentum=0.1, affine=True, track_running_stats=True
#>           (drop): Identity()
#>           (act): SiLU(inplace=True)
#>         )
#>         (conv_dw): Conv2dSame(336, 336, kernel_size=(3, 3), stride=(2, 2), groups=336, bias=False)
#>         (bn2): BatchNormAct2d(
#>           336, eps=0.001, momentum=0.1, affine=True, track_running_stats=True
#>           (drop): Identity()
#>           (act): SiLU(inplace=True)
#>         )
#>         (aa): Identity()
#>         (se): SqueezeExcite(
#>           (conv_reduce): Conv2d(336, 14, kernel_size=(1, 1), stride=(1, 1))
#>           (act1): SiLU(inplace=True)
#>           (conv_expand): Conv2d(14, 336, kernel_size=(1, 1), stride=(1, 1))
#>           (gate): Sigmoid()
#>         )
#>         (conv_pwl): Conv2d(336, 112, kernel_size=(1, 1), stride=(1, 1), bias=False)
#>         (bn3): BatchNormAct2d(
#>           112, eps=0.001, momentum=0.1, affine=True, track_running_stats=True
#>           (drop): Identity()
#>           (act): Identity()
#>         )
#>         (drop_path): Identity()
#>       )
#>       (1): InvertedResidual(
#>         (conv_pw): Conv2d(112, 672, kernel_size=(1, 1), stride=(1, 1), bias=False)
#>         (bn1): BatchNormAct2d(
#>           672, eps=0.001, momentum=0.1, affine=True, track_running_stats=True
#>           (drop): Identity()
#>           (act): SiLU(inplace=True)
#>         )
#>         (conv_dw): Conv2d(672, 672, kernel_size=(3, 3), stride=(1, 1), padding=(1, 1), groups=672, bias=False)
#>         (bn2): BatchNormAct2d(
#>           672, eps=0.001, momentum=0.1, affine=True, track_running_stats=True
#>           (drop): Identity()
#>           (act): SiLU(inplace=True)
#>         )
#>         (aa): Identity()
#>         (se): SqueezeExcite(
#>           (conv_reduce): Conv2d(672, 28, kernel_size=(1, 1), stride=(1, 1))
#>           (act1): SiLU(inplace=True)
#>           (conv_expand): Conv2d(28, 672, kernel_size=(1, 1), stride=(1, 1))
#>           (gate): Sigmoid()
#>         )
#>         (conv_pwl): Conv2d(672, 112, kernel_size=(1, 1), stride=(1, 1), bias=False)
#>         (bn3): BatchNormAct2d(
#>           112, eps=0.001, momentum=0.1, affine=True, track_running_stats=True
#>           (drop): Identity()
#>           (act): Identity()
#>         )
#>         (drop_path): Identity()
#>       )
#>       (2): InvertedResidual(
#>         (conv_pw): Conv2d(112, 672, kernel_size=(1, 1), stride=(1, 1), bias=False)
#>         (bn1): BatchNormAct2d(
#>           672, eps=0.001, momentum=0.1, affine=True, track_running_stats=True
#>           (drop): Identity()
#>           (act): SiLU(inplace=True)
#>         )
#>         (conv_dw): Conv2d(672, 672, kernel_size=(3, 3), stride=(1, 1), padding=(1, 1), groups=672, bias=False)
#>         (bn2): BatchNormAct2d(
#>           672, eps=0.001, momentum=0.1, affine=True, track_running_stats=True
#>           (drop): Identity()
#>           (act): SiLU(inplace=True)
#>         )
#>         (aa): Identity()
#>         (se): SqueezeExcite(
#>           (conv_reduce): Conv2d(672, 28, kernel_size=(1, 1), stride=(1, 1))
#>           (act1): SiLU(inplace=True)
#>           (conv_expand): Conv2d(28, 672, kernel_size=(1, 1), stride=(1, 1))
#>           (gate): Sigmoid()
#>         )
#>         (conv_pwl): Conv2d(672, 112, kernel_size=(1, 1), stride=(1, 1), bias=False)
#>         (bn3): BatchNormAct2d(
#>           112, eps=0.001, momentum=0.1, affine=True, track_running_stats=True
#>           (drop): Identity()
#>           (act): Identity()
#>         )
#>         (drop_path): Identity()
#>       )
#>       (3): InvertedResidual(
#>         (conv_pw): Conv2d(112, 672, kernel_size=(1, 1), stride=(1, 1), bias=False)
#>         (bn1): BatchNormAct2d(
#>           672, eps=0.001, momentum=0.1, affine=True, track_running_stats=True
#>           (drop): Identity()
#>           (act): SiLU(inplace=True)
#>         )
#>         (conv_dw): Conv2d(672, 672, kernel_size=(3, 3), stride=(1, 1), padding=(1, 1), groups=672, bias=False)
#>         (bn2): BatchNormAct2d(
#>           672, eps=0.001, momentum=0.1, affine=True, track_running_stats=True
#>           (drop): Identity()
#>           (act): SiLU(inplace=True)
#>         )
#>         (aa): Identity()
#>         (se): SqueezeExcite(
#>           (conv_reduce): Conv2d(672, 28, kernel_size=(1, 1), stride=(1, 1))
#>           (act1): SiLU(inplace=True)
#>           (conv_expand): Conv2d(28, 672, kernel_size=(1, 1), stride=(1, 1))
#>           (gate): Sigmoid()
#>         )
#>         (conv_pwl): Conv2d(672, 112, kernel_size=(1, 1), stride=(1, 1), bias=False)
#>         (bn3): BatchNormAct2d(
#>           112, eps=0.001, momentum=0.1, affine=True, track_running_stats=True
#>           (drop): Identity()
#>           (act): Identity()
#>         )
#>         (drop_path): Identity()
#>       )
#>       (4): InvertedResidual(
#>         (conv_pw): Conv2d(112, 672, kernel_size=(1, 1), stride=(1, 1), bias=False)
#>         (bn1): BatchNormAct2d(
#>           672, eps=0.001, momentum=0.1, affine=True, track_running_stats=True
#>           (drop): Identity()
#>           (act): SiLU(inplace=True)
#>         )
#>         (conv_dw): Conv2d(672, 672, kernel_size=(3, 3), stride=(1, 1), padding=(1, 1), groups=672, bias=False)
#>         (bn2): BatchNormAct2d(
#>           672, eps=0.001, momentum=0.1, affine=True, track_running_stats=True
#>           (drop): Identity()
#>           (act): SiLU(inplace=True)
#>         )
#>         (aa): Identity()
#>         (se): SqueezeExcite(
#>           (conv_reduce): Conv2d(672, 28, kernel_size=(1, 1), stride=(1, 1))
#>           (act1): SiLU(inplace=True)
#>           (conv_expand): Conv2d(28, 672, kernel_size=(1, 1), stride=(1, 1))
#>           (gate): Sigmoid()
#>         )
#>         (conv_pwl): Conv2d(672, 112, kernel_size=(1, 1), stride=(1, 1), bias=False)
#>         (bn3): BatchNormAct2d(
#>           112, eps=0.001, momentum=0.1, affine=True, track_running_stats=True
#>           (drop): Identity()
#>           (act): Identity()
#>         )
#>         (drop_path): Identity()
#>       )
#>       (5): InvertedResidual(
#>         (conv_pw): Conv2d(112, 672, kernel_size=(1, 1), stride=(1, 1), bias=False)
#>         (bn1): BatchNormAct2d(
#>           672, eps=0.001, momentum=0.1, affine=True, track_running_stats=True
#>           (drop): Identity()
#>           (act): SiLU(inplace=True)
#>         )
#>         (conv_dw): Conv2d(672, 672, kernel_size=(3, 3), stride=(1, 1), padding=(1, 1), groups=672, bias=False)
#>         (bn2): BatchNormAct2d(
#>           672, eps=0.001, momentum=0.1, affine=True, track_running_stats=True
#>           (drop): Identity()
#>           (act): SiLU(inplace=True)
#>         )
#>         (aa): Identity()
#>         (se): SqueezeExcite(
#>           (conv_reduce): Conv2d(672, 28, kernel_size=(1, 1), stride=(1, 1))
#>           (act1): SiLU(inplace=True)
#>           (conv_expand): Conv2d(28, 672, kernel_size=(1, 1), stride=(1, 1))
#>           (gate): Sigmoid()
#>         )
#>         (conv_pwl): Conv2d(672, 112, kernel_size=(1, 1), stride=(1, 1), bias=False)
#>         (bn3): BatchNormAct2d(
#>           112, eps=0.001, momentum=0.1, affine=True, track_running_stats=True
#>           (drop): Identity()
#>           (act): Identity()
#>         )
#>         (drop_path): Identity()
#>       )
#>     )
#>     (4): Sequential(
#>       (0): InvertedResidual(
#>         (conv_pw): Conv2d(112, 672, kernel_size=(1, 1), stride=(1, 1), bias=False)
#>         (bn1): BatchNormAct2d(
#>           672, eps=0.001, momentum=0.1, affine=True, track_running_stats=True
#>           (drop): Identity()
#>           (act): SiLU(inplace=True)
#>         )
#>         (conv_dw): Conv2d(672, 672, kernel_size=(5, 5), stride=(1, 1), padding=(2, 2), groups=672, bias=False)
#>         (bn2): BatchNormAct2d(
#>           672, eps=0.001, momentum=0.1, affine=True, track_running_stats=True
#>           (drop): Identity()
#>           (act): SiLU(inplace=True)
#>         )
#>         (aa): Identity()
#>         (se): SqueezeExcite(
#>           (conv_reduce): Conv2d(672, 28, kernel_size=(1, 1), stride=(1, 1))
#>           (act1): SiLU(inplace=True)
#>           (conv_expand): Conv2d(28, 672, kernel_size=(1, 1), stride=(1, 1))
#>           (gate): Sigmoid()
#>         )
#>         (conv_pwl): Conv2d(672, 160, kernel_size=(1, 1), stride=(1, 1), bias=False)
#>         (bn3): BatchNormAct2d(
#>           160, eps=0.001, momentum=0.1, affine=True, track_running_stats=True
#>           (drop): Identity()
#>           (act): Identity()
#>         )
#>         (drop_path): Identity()
#>       )
#>       (1): InvertedResidual(
#>         (conv_pw): Conv2d(160, 960, kernel_size=(1, 1), stride=(1, 1), bias=False)
#>         (bn1): BatchNormAct2d(
#>           960, eps=0.001, momentum=0.1, affine=True, track_running_stats=True
#>           (drop): Identity()
#>           (act): SiLU(inplace=True)
#>         )
#>         (conv_dw): Conv2d(960, 960, kernel_size=(5, 5), stride=(1, 1), padding=(2, 2), groups=960, bias=False)
#>         (bn2): BatchNormAct2d(
#>           960, eps=0.001, momentum=0.1, affine=True, track_running_stats=True
#>           (drop): Identity()
#>           (act): SiLU(inplace=True)
#>         )
#>         (aa): Identity()
#>         (se): SqueezeExcite(
#>           (conv_reduce): Conv2d(960, 40, kernel_size=(1, 1), stride=(1, 1))
#>           (act1): SiLU(inplace=True)
#>           (conv_expand): Conv2d(40, 960, kernel_size=(1, 1), stride=(1, 1))
#>           (gate): Sigmoid()
#>         )
#>         (conv_pwl): Conv2d(960, 160, kernel_size=(1, 1), stride=(1, 1), bias=False)
#>         (bn3): BatchNormAct2d(
#>           160, eps=0.001, momentum=0.1, affine=True, track_running_stats=True
#>           (drop): Identity()
#>           (act): Identity()
#>         )
#>         (drop_path): Identity()
#>       )
#>       (2): InvertedResidual(
#>         (conv_pw): Conv2d(160, 960, kernel_size=(1, 1), stride=(1, 1), bias=False)
#>         (bn1): BatchNormAct2d(
#>           960, eps=0.001, momentum=0.1, affine=True, track_running_stats=True
#>           (drop): Identity()
#>           (act): SiLU(inplace=True)
#>         )
#>         (conv_dw): Conv2d(960, 960, kernel_size=(5, 5), stride=(1, 1), padding=(2, 2), groups=960, bias=False)
#>         (bn2): BatchNormAct2d(
#>           960, eps=0.001, momentum=0.1, affine=True, track_running_stats=True
#>           (drop): Identity()
#>           (act): SiLU(inplace=True)
#>         )
#>         (aa): Identity()
#>         (se): SqueezeExcite(
#>           (conv_reduce): Conv2d(960, 40, kernel_size=(1, 1), stride=(1, 1))
#>           (act1): SiLU(inplace=True)
#>           (conv_expand): Conv2d(40, 960, kernel_size=(1, 1), stride=(1, 1))
#>           (gate): Sigmoid()
#>         )
#>         (conv_pwl): Conv2d(960, 160, kernel_size=(1, 1), stride=(1, 1), bias=False)
#>         (bn3): BatchNormAct2d(
#>           160, eps=0.001, momentum=0.1, affine=True, track_running_stats=True
#>           (drop): Identity()
#>           (act): Identity()
#>         )
#>         (drop_path): Identity()
#>       )
#>       (3): InvertedResidual(
#>         (conv_pw): Conv2d(160, 960, kernel_size=(1, 1), stride=(1, 1), bias=False)
#>         (bn1): BatchNormAct2d(
#>           960, eps=0.001, momentum=0.1, affine=True, track_running_stats=True
#>           (drop): Identity()
#>           (act): SiLU(inplace=True)
#>         )
#>         (conv_dw): Conv2d(960, 960, kernel_size=(5, 5), stride=(1, 1), padding=(2, 2), groups=960, bias=False)
#>         (bn2): BatchNormAct2d(
#>           960, eps=0.001, momentum=0.1, affine=True, track_running_stats=True
#>           (drop): Identity()
#>           (act): SiLU(inplace=True)
#>         )
#>         (aa): Identity()
#>         (se): SqueezeExcite(
#>           (conv_reduce): Conv2d(960, 40, kernel_size=(1, 1), stride=(1, 1))
#>           (act1): SiLU(inplace=True)
#>           (conv_expand): Conv2d(40, 960, kernel_size=(1, 1), stride=(1, 1))
#>           (gate): Sigmoid()
#>         )
#>         (conv_pwl): Conv2d(960, 160, kernel_size=(1, 1), stride=(1, 1), bias=False)
#>         (bn3): BatchNormAct2d(
#>           160, eps=0.001, momentum=0.1, affine=True, track_running_stats=True
#>           (drop): Identity()
#>           (act): Identity()
#>         )
#>         (drop_path): Identity()
#>       )
#>       (4): InvertedResidual(
#>         (conv_pw): Conv2d(160, 960, kernel_size=(1, 1), stride=(1, 1), bias=False)
#>         (bn1): BatchNormAct2d(
#>           960, eps=0.001, momentum=0.1, affine=True, track_running_stats=True
#>           (drop): Identity()
#>           (act): SiLU(inplace=True)
#>         )
#>         (conv_dw): Conv2d(960, 960, kernel_size=(5, 5), stride=(1, 1), padding=(2, 2), groups=960, bias=False)
#>         (bn2): BatchNormAct2d(
#>           960, eps=0.001, momentum=0.1, affine=True, track_running_stats=True
#>           (drop): Identity()
#>           (act): SiLU(inplace=True)
#>         )
#>         (aa): Identity()
#>         (se): SqueezeExcite(
#>           (conv_reduce): Conv2d(960, 40, kernel_size=(1, 1), stride=(1, 1))
#>           (act1): SiLU(inplace=True)
#>           (conv_expand): Conv2d(40, 960, kernel_size=(1, 1), stride=(1, 1))
#>           (gate): Sigmoid()
#>         )
#>         (conv_pwl): Conv2d(960, 160, kernel_size=(1, 1), stride=(1, 1), bias=False)
#>         (bn3): BatchNormAct2d(
#>           160, eps=0.001, momentum=0.1, affine=True, track_running_stats=True
#>           (drop): Identity()
#>           (act): Identity()
#>         )
#>         (drop_path): Identity()
#>       )
#>       (5): InvertedResidual(
#>         (conv_pw): Conv2d(160, 960, kernel_size=(1, 1), stride=(1, 1), bias=False)
#>         (bn1): BatchNormAct2d(
#>           960, eps=0.001, momentum=0.1, affine=True, track_running_stats=True
#>           (drop): Identity()
#>           (act): SiLU(inplace=True)
#>         )
#>         (conv_dw): Conv2d(960, 960, kernel_size=(5, 5), stride=(1, 1), padding=(2, 2), groups=960, bias=False)
#>         (bn2): BatchNormAct2d(
#>           960, eps=0.001, momentum=0.1, affine=True, track_running_stats=True
#>           (drop): Identity()
#>           (act): SiLU(inplace=True)
#>         )
#>         (aa): Identity()
#>         (se): SqueezeExcite(
#>           (conv_reduce): Conv2d(960, 40, kernel_size=(1, 1), stride=(1, 1))
#>           (act1): SiLU(inplace=True)
#>           (conv_expand): Conv2d(40, 960, kernel_size=(1, 1), stride=(1, 1))
#>           (gate): Sigmoid()
#>         )
#>         (conv_pwl): Conv2d(960, 160, kernel_size=(1, 1), stride=(1, 1), bias=False)
#>         (bn3): BatchNormAct2d(
#>           160, eps=0.001, momentum=0.1, affine=True, track_running_stats=True
#>           (drop): Identity()
#>           (act): Identity()
#>         )
#>         (drop_path): Identity()
#>       )
#>     )
#>     (5): Sequential(
#>       (0): InvertedResidual(
#>         (conv_pw): Conv2d(160, 960, kernel_size=(1, 1), stride=(1, 1), bias=False)
#>         (bn1): BatchNormAct2d(
#>           960, eps=0.001, momentum=0.1, affine=True, track_running_stats=True
#>           (drop): Identity()
#>           (act): SiLU(inplace=True)
#>         )
#>         (conv_dw): Conv2dSame(960, 960, kernel_size=(5, 5), stride=(2, 2), groups=960, bias=False)
#>         (bn2): BatchNormAct2d(
#>           960, eps=0.001, momentum=0.1, affine=True, track_running_stats=True
#>           (drop): Identity()
#>           (act): SiLU(inplace=True)
#>         )
#>         (aa): Identity()
#>         (se): SqueezeExcite(
#>           (conv_reduce): Conv2d(960, 40, kernel_size=(1, 1), stride=(1, 1))
#>           (act1): SiLU(inplace=True)
#>           (conv_expand): Conv2d(40, 960, kernel_size=(1, 1), stride=(1, 1))
#>           (gate): Sigmoid()
#>         )
#>         (conv_pwl): Conv2d(960, 272, kernel_size=(1, 1), stride=(1, 1), bias=False)
#>         (bn3): BatchNormAct2d(
#>           272, eps=0.001, momentum=0.1, affine=True, track_running_stats=True
#>           (drop): Identity()
#>           (act): Identity()
#>         )
#>         (drop_path): Identity()
#>       )
#>       (1): InvertedResidual(
#>         (conv_pw): Conv2d(272, 1632, kernel_size=(1, 1), stride=(1, 1), bias=False)
#>         (bn1): BatchNormAct2d(
#>           1632, eps=0.001, momentum=0.1, affine=True, track_running_stats=True
#>           (drop): Identity()
#>           (act): SiLU(inplace=True)
#>         )
#>         (conv_dw): Conv2d(1632, 1632, kernel_size=(5, 5), stride=(1, 1), padding=(2, 2), groups=1632, bias=False)
#>         (bn2): BatchNormAct2d(
#>           1632, eps=0.001, momentum=0.1, affine=True, track_running_stats=True
#>           (drop): Identity()
#>           (act): SiLU(inplace=True)
#>         )
#>         (aa): Identity()
#>         (se): SqueezeExcite(
#>           (conv_reduce): Conv2d(1632, 68, kernel_size=(1, 1), stride=(1, 1))
#>           (act1): SiLU(inplace=True)
#>           (conv_expand): Conv2d(68, 1632, kernel_size=(1, 1), stride=(1, 1))
#>           (gate): Sigmoid()
#>         )
#>         (conv_pwl): Conv2d(1632, 272, kernel_size=(1, 1), stride=(1, 1), bias=False)
#>         (bn3): BatchNormAct2d(
#>           272, eps=0.001, momentum=0.1, affine=True, track_running_stats=True
#>           (drop): Identity()
#>           (act): Identity()
#>         )
#>         (drop_path): Identity()
#>       )
#>       (2): InvertedResidual(
#>         (conv_pw): Conv2d(272, 1632, kernel_size=(1, 1), stride=(1, 1), bias=False)
#>         (bn1): BatchNormAct2d(
#>           1632, eps=0.001, momentum=0.1, affine=True, track_running_stats=True
#>           (drop): Identity()
#>           (act): SiLU(inplace=True)
#>         )
#>         (conv_dw): Conv2d(1632, 1632, kernel_size=(5, 5), stride=(1, 1), padding=(2, 2), groups=1632, bias=False)
#>         (bn2): BatchNormAct2d(
#>           1632, eps=0.001, momentum=0.1, affine=True, track_running_stats=True
#>           (drop): Identity()
#>           (act): SiLU(inplace=True)
#>         )
#>         (aa): Identity()
#>         (se): SqueezeExcite(
#>           (conv_reduce): Conv2d(1632, 68, kernel_size=(1, 1), stride=(1, 1))
#>           (act1): SiLU(inplace=True)
#>           (conv_expand): Conv2d(68, 1632, kernel_size=(1, 1), stride=(1, 1))
#>           (gate): Sigmoid()
#>         )
#>         (conv_pwl): Conv2d(1632, 272, kernel_size=(1, 1), stride=(1, 1), bias=False)
#>         (bn3): BatchNormAct2d(
#>           272, eps=0.001, momentum=0.1, affine=True, track_running_stats=True
#>           (drop): Identity()
#>           (act): Identity()
#>         )
#>         (drop_path): Identity()
#>       )
#>       (3): InvertedResidual(
#>         (conv_pw): Conv2d(272, 1632, kernel_size=(1, 1), stride=(1, 1), bias=False)
#>         (bn1): BatchNormAct2d(
#>           1632, eps=0.001, momentum=0.1, affine=True, track_running_stats=True
#>           (drop): Identity()
#>           (act): SiLU(inplace=True)
#>         )
#>         (conv_dw): Conv2d(1632, 1632, kernel_size=(5, 5), stride=(1, 1), padding=(2, 2), groups=1632, bias=False)
#>         (bn2): BatchNormAct2d(
#>           1632, eps=0.001, momentum=0.1, affine=True, track_running_stats=True
#>           (drop): Identity()
#>           (act): SiLU(inplace=True)
#>         )
#>         (aa): Identity()
#>         (se): SqueezeExcite(
#>           (conv_reduce): Conv2d(1632, 68, kernel_size=(1, 1), stride=(1, 1))
#>           (act1): SiLU(inplace=True)
#>           (conv_expand): Conv2d(68, 1632, kernel_size=(1, 1), stride=(1, 1))
#>           (gate): Sigmoid()
#>         )
#>         (conv_pwl): Conv2d(1632, 272, kernel_size=(1, 1), stride=(1, 1), bias=False)
#>         (bn3): BatchNormAct2d(
#>           272, eps=0.001, momentum=0.1, affine=True, track_running_stats=True
#>           (drop): Identity()
#>           (act): Identity()
#>         )
#>         (drop_path): Identity()
#>       )
#>       (4): InvertedResidual(
#>         (conv_pw): Conv2d(272, 1632, kernel_size=(1, 1), stride=(1, 1), bias=False)
#>         (bn1): BatchNormAct2d(
#>           1632, eps=0.001, momentum=0.1, affine=True, track_running_stats=True
#>           (drop): Identity()
#>           (act): SiLU(inplace=True)
#>         )
#>         (conv_dw): Conv2d(1632, 1632, kernel_size=(5, 5), stride=(1, 1), padding=(2, 2), groups=1632, bias=False)
#>         (bn2): BatchNormAct2d(
#>           1632, eps=0.001, momentum=0.1, affine=True, track_running_stats=True
#>           (drop): Identity()
#>           (act): SiLU(inplace=True)
#>         )
#>         (aa): Identity()
#>         (se): SqueezeExcite(
#>           (conv_reduce): Conv2d(1632, 68, kernel_size=(1, 1), stride=(1, 1))
#>           (act1): SiLU(inplace=True)
#>           (conv_expand): Conv2d(68, 1632, kernel_size=(1, 1), stride=(1, 1))
#>           (gate): Sigmoid()
#>         )
#>         (conv_pwl): Conv2d(1632, 272, kernel_size=(1, 1), stride=(1, 1), bias=False)
#>         (bn3): BatchNormAct2d(
#>           272, eps=0.001, momentum=0.1, affine=True, track_running_stats=True
#>           (drop): Identity()
#>           (act): Identity()
#>         )
#>         (drop_path): Identity()
#>       )
#>       (5): InvertedResidual(
#>         (conv_pw): Conv2d(272, 1632, kernel_size=(1, 1), stride=(1, 1), bias=False)
#>         (bn1): BatchNormAct2d(
#>           1632, eps=0.001, momentum=0.1, affine=True, track_running_stats=True
#>           (drop): Identity()
#>           (act): SiLU(inplace=True)
#>         )
#>         (conv_dw): Conv2d(1632, 1632, kernel_size=(5, 5), stride=(1, 1), padding=(2, 2), groups=1632, bias=False)
#>         (bn2): BatchNormAct2d(
#>           1632, eps=0.001, momentum=0.1, affine=True, track_running_stats=True
#>           (drop): Identity()
#>           (act): SiLU(inplace=True)
#>         )
#>         (aa): Identity()
#>         (se): SqueezeExcite(
#>           (conv_reduce): Conv2d(1632, 68, kernel_size=(1, 1), stride=(1, 1))
#>           (act1): SiLU(inplace=True)
#>           (conv_expand): Conv2d(68, 1632, kernel_size=(1, 1), stride=(1, 1))
#>           (gate): Sigmoid()
#>         )
#>         (conv_pwl): Conv2d(1632, 272, kernel_size=(1, 1), stride=(1, 1), bias=False)
#>         (bn3): BatchNormAct2d(
#>           272, eps=0.001, momentum=0.1, affine=True, track_running_stats=True
#>           (drop): Identity()
#>           (act): Identity()
#>         )
#>         (drop_path): Identity()
#>       )
#>       (6): InvertedResidual(
#>         (conv_pw): Conv2d(272, 1632, kernel_size=(1, 1), stride=(1, 1), bias=False)
#>         (bn1): BatchNormAct2d(
#>           1632, eps=0.001, momentum=0.1, affine=True, track_running_stats=True
#>           (drop): Identity()
#>           (act): SiLU(inplace=True)
#>         )
#>         (conv_dw): Conv2d(1632, 1632, kernel_size=(5, 5), stride=(1, 1), padding=(2, 2), groups=1632, bias=False)
#>         (bn2): BatchNormAct2d(
#>           1632, eps=0.001, momentum=0.1, affine=True, track_running_stats=True
#>           (drop): Identity()
#>           (act): SiLU(inplace=True)
#>         )
#>         (aa): Identity()
#>         (se): SqueezeExcite(
#>           (conv_reduce): Conv2d(1632, 68, kernel_size=(1, 1), stride=(1, 1))
#>           (act1): SiLU(inplace=True)
#>           (conv_expand): Conv2d(68, 1632, kernel_size=(1, 1), stride=(1, 1))
#>           (gate): Sigmoid()
#>         )
#>         (conv_pwl): Conv2d(1632, 272, kernel_size=(1, 1), stride=(1, 1), bias=False)
#>         (bn3): BatchNormAct2d(
#>           272, eps=0.001, momentum=0.1, affine=True, track_running_stats=True
#>           (drop): Identity()
#>           (act): Identity()
#>         )
#>         (drop_path): Identity()
#>       )
#>       (7): InvertedResidual(
#>         (conv_pw): Conv2d(272, 1632, kernel_size=(1, 1), stride=(1, 1), bias=False)
#>         (bn1): BatchNormAct2d(
#>           1632, eps=0.001, momentum=0.1, affine=True, track_running_stats=True
#>           (drop): Identity()
#>           (act): SiLU(inplace=True)
#>         )
#>         (conv_dw): Conv2d(1632, 1632, kernel_size=(5, 5), stride=(1, 1), padding=(2, 2), groups=1632, bias=False)
#>         (bn2): BatchNormAct2d(
#>           1632, eps=0.001, momentum=0.1, affine=True, track_running_stats=True
#>           (drop): Identity()
#>           (act): SiLU(inplace=True)
#>         )
#>         (aa): Identity()
#>         (se): SqueezeExcite(
#>           (conv_reduce): Conv2d(1632, 68, kernel_size=(1, 1), stride=(1, 1))
#>           (act1): SiLU(inplace=True)
#>           (conv_expand): Conv2d(68, 1632, kernel_size=(1, 1), stride=(1, 1))
#>           (gate): Sigmoid()
#>         )
#>         (conv_pwl): Conv2d(1632, 272, kernel_size=(1, 1), stride=(1, 1), bias=False)
#>         (bn3): BatchNormAct2d(
#>           272, eps=0.001, momentum=0.1, affine=True, track_running_stats=True
#>           (drop): Identity()
#>           (act): Identity()
#>         )
#>         (drop_path): Identity()
#>       )
#>     )
#>     (6): Sequential(
#>       (0): InvertedResidual(
#>         (conv_pw): Conv2d(272, 1632, kernel_size=(1, 1), stride=(1, 1), bias=False)
#>         (bn1): BatchNormAct2d(
#>           1632, eps=0.001, momentum=0.1, affine=True, track_running_stats=True
#>           (drop): Identity()
#>           (act): SiLU(inplace=True)
#>         )
#>         (conv_dw): Conv2d(1632, 1632, kernel_size=(3, 3), stride=(1, 1), padding=(1, 1), groups=1632, bias=False)
#>         (bn2): BatchNormAct2d(
#>           1632, eps=0.001, momentum=0.1, affine=True, track_running_stats=True
#>           (drop): Identity()
#>           (act): SiLU(inplace=True)
#>         )
#>         (aa): Identity()
#>         (se): SqueezeExcite(
#>           (conv_reduce): Conv2d(1632, 68, kernel_size=(1, 1), stride=(1, 1))
#>           (act1): SiLU(inplace=True)
#>           (conv_expand): Conv2d(68, 1632, kernel_size=(1, 1), stride=(1, 1))
#>           (gate): Sigmoid()
#>         )
#>         (conv_pwl): Conv2d(1632, 448, kernel_size=(1, 1), stride=(1, 1), bias=False)
#>         (bn3): BatchNormAct2d(
#>           448, eps=0.001, momentum=0.1, affine=True, track_running_stats=True
#>           (drop): Identity()
#>           (act): Identity()
#>         )
#>         (drop_path): Identity()
#>       )
#>       (1): InvertedResidual(
#>         (conv_pw): Conv2d(448, 2688, kernel_size=(1, 1), stride=(1, 1), bias=False)
#>         (bn1): BatchNormAct2d(
#>           2688, eps=0.001, momentum=0.1, affine=True, track_running_stats=True
#>           (drop): Identity()
#>           (act): SiLU(inplace=True)
#>         )
#>         (conv_dw): Conv2d(2688, 2688, kernel_size=(3, 3), stride=(1, 1), padding=(1, 1), groups=2688, bias=False)
#>         (bn2): BatchNormAct2d(
#>           2688, eps=0.001, momentum=0.1, affine=True, track_running_stats=True
#>           (drop): Identity()
#>           (act): SiLU(inplace=True)
#>         )
#>         (aa): Identity()
#>         (se): SqueezeExcite(
#>           (conv_reduce): Conv2d(2688, 112, kernel_size=(1, 1), stride=(1, 1))
#>           (act1): SiLU(inplace=True)
#>           (conv_expand): Conv2d(112, 2688, kernel_size=(1, 1), stride=(1, 1))
#>           (gate): Sigmoid()
#>         )
#>         (conv_pwl): Conv2d(2688, 448, kernel_size=(1, 1), stride=(1, 1), bias=False)
#>         (bn3): BatchNormAct2d(
#>           448, eps=0.001, momentum=0.1, affine=True, track_running_stats=True
#>           (drop): Identity()
#>           (act): Identity()
#>         )
#>         (drop_path): Identity()
#>       )
#>     )
#>   )
#>   (conv_head): Conv2d(448, 1792, kernel_size=(1, 1), stride=(1, 1), bias=False)
#>   (bn2): BatchNormAct2d(
#>     1792, eps=0.001, momentum=0.1, affine=True, track_running_stats=True
#>     (drop): Identity()
#>     (act): SiLU(inplace=True)
#>   )
#>   (global_pool): SelectAdaptivePool2d(pool_type=avg, flatten=Flatten(start_dim=1, end_dim=-1))
#>   (classifier): Linear(in_features=1792, out_features=512, bias=True)
#> )
```


# Custom Implementation 

Implementation converted to Pytorch from [this](https://www.kaggle.com/dimitreoliveira/cassava-leaf-supervised-contrastive-learning) amazing notebook


```python
class SupervisedContrastiveLoss(nn.Module): 
  def __init__(self, temperature = 0.1): 
    super(SupervisedContrastiveLoss, self).__init__() 
    self.temperature = temperature 
…
